Api/Api/Synapse/api/model/garden/gender_model.tflite (tflite, 13572 bytes, 5 tensors)

arith.constant f4 [1, 32]
000000 24 c4 85 3d 8c e2 c9 be 66 70 8f bd f7 53 c5 3e
       0.065315515 -0.39430654 -0.0700386 0.38540623
000010 48 2a d3 be a6 fc 9c 3e 9a 55 88 3c d4 6f 16 be
       -0.41243196 0.30661505 0.01664238 -0.14691097
000020 40 6c 2e be f8 8e a0 be 4c e7 80 3d 00 36 29 bd
       -0.17033482 -0.31359076 0.062941164 -0.041311264
000030 66 6b ce 3e 55 3a ef 3d e0 a2 5e 3e 93 73 aa 3e
       0.40316314 0.11681048 0.2174182 0.332913
000040 52 95 51 3e 68 e2 39 3d 20 21 8b bc bb 75 2f 3e
       0.20467117 0.045381933 -0.016983569 0.17134754
000050 18 08 20 3e 0f bb b9 3e 2f c9 9c 3e b5 e0 84 3d
       0.15628088 0.36275527 0.3062224 0.06488172
000060 93 d9 8d 3e c0 5f bb 3e a4 37 5b 3d 11 4c c6 3e
       0.27705058 0.3659649 0.05351986 0.3872991
000070 52 e1 ed be 10 97 96 be 09 97 cf be db 6f cd 3e
       -0.46460968 -0.29412127 -0.40544918 0.401244

arith.constant1 f4 [32, 64]
000000 74 1d 09 3e 40 6a 2d bd 08 84 eb bd a0 c4 6b bd
       0.13390142 -0.042337656 -0.11499792 -0.057560563
000010 d0 c9 54 be 40 6e 4f bc dc 28 1e be 00 90 0e 3d
       -0.2078011 -0.012660563 -0.15445274 0.034805298
000020 50 9e 3a bd e0 10 50 3e bc 79 49 3e b4 f4 13 3e
       -0.045561135 0.20318937 0.19675344 0.14448816
000030 74 39 4d 3e 10 f4 20 be 60 dd 78 be 3c 4c 4a be
       0.20041448 -0.15718102 -0.24303198 -0.19755644
000040 b0 49 02 be 40 38 5c be 40 73 32 be c0 50 1e 3d
       -0.12723422 -0.21505833 -0.17426777 0.038651228
000050 20 d3 5d 3d 50 c3 03 bd ec ef 53 3e f8 50 20 3e
       0.054156423 -0.032168686 0.20696992 0.15655887
000060 20 a1 84 bd 04 11 36 3e 70 95 69 3d 14 80 6f be
       -0.06476045 0.17779928 0.05702728 -0.23388702
000070 a8 6d e7 bd 80 90 a5 3d 98 ea 04 be 50 e8 91 3d
       -0.11300212 0.08084202 -0.12980115 0.07124388
000080 90 2b 78 be 30 6e b8 3d 94 e1 77 be 00 aa 84 bc
       -0.24235368 0.090053916 -0.24207145 -0.016194344
000090 e0 d5 eb 3d 48 a9 b1 3d 10 80 a0 3d e0 74 de bc
       0.11515403 0.08674866 0.07836926 -0.02715534
0000a0 50 ea da 3d d0 a4 f0 bd d0 71 5b bd f0 c7 00 be
       0.10689223 -0.117501855 -0.053575337 -0.1257627
0000b0 84 d4 35 be 80 5b 1b 3e a8 ca 31 3e f8 ef cb bd
       -0.1775685 0.15171623 0.17362463 -0.0995788
0000c0 e0 b0 49 bd 28 1e 31 3e 18 8f c1 3d 40 89 f2 bd
       -0.049240947 0.1729666 0.09451121 -0.118425846
0000d0 a4 41 1f be e0 85 47 3d 80 a7 cf 3d 38 a5 1b 3e
       -0.15552384 0.048711658 0.1013937 0.15199745
0000e0 d0 8e d0 3d 88 9e f9 bd 24 0f 32 3e f0 8e ad 3d
       0.10183489 -0.121884406 0.17388588 0.08474529
0000f0 3c 42 1a 3e 40 97 23 3c d0 cb 65 bd 48 d4 26 3e
       0.15064329 0.009984791 -0.056102574 0.16291916
000100 98 eb f1 bd f8 bf 6c 3e c0 6d 4c 3e c4 97 39 be
       -0.11812514 0.23120105 0.19963741 -0.181243
000110 44 98 3e 3e 58 7c f8 3d d4 b8 38 be d0 ab 65 3d
       0.18612772 0.12133092 -0.18039256 0.056072056
000120 98 83 5c 3e d0 c0 60 3e 00 8f a2 bb 90 3e c3 bd
       0.21534574 0.21948552 -0.0049608946 -0.09533417
000130 c0 62 ad 3c 30 b9 ad 3d 2c 38 22 be 08 01 34 be
       0.021165252 0.08482587 -0.1584174 -0.17578518
000140 68 bc 21 be 5c 2e 04 be e8 6e d7 bd 88 d4 e7 3d
       -0.15794528 -0.1290831 -0.105192006 0.11319834
000150 d0 42 75 be d8 a1 30 be 54 f4 35 3e 88 7b 2d 3e
       -0.23951268 -0.17249238 0.17768985 0.16941655
000160 60 7f 1e be 80 0e 8b 3c dc 31 31 be a8 36 44 3e
       -0.15478277 0.016974688 -0.17304176 0.19161475
000170 94 54 22 3e 90 56 f1 3d 24 2e 37 be e8 9d 4a 3e
       0.15852576 0.117840886 -0.17888695 0.19786799
000180 e0 f2 2a 3d d0 50 19 3d 64 e2 30 3e 80 9d 0b be
       0.04173553 0.037430584 0.17273861 -0.136343
000190 48 9f 0f 3e 58 66 df 3d cc a4 02 3e cc 89 34 be
       0.14025605 0.109081924 0.12758178 -0.1763069
0001a0 70 c3 3d bd c8 ee 5d be e0 03 c5 bc 9c 2d 7e 3e
       -0.04632896 -0.21673119 -0.0240497 0.24822086
0001b0 a8 41 25 be 00 cc 50 be f0 33 2d be d0 4d 74 be
       -0.16138327 -0.2039032 -0.16914344 -0.23857808
0001c0 c0 d3 3e bc ec d9 0a 3e 50 e0 74 bd 68 38 64 be
       -0.011647165 0.13559693 -0.059784234 -0.22287142
0001d0 90 d0 36 3d 48 1a df bd ec 3a 7a be dc c5 40 be
       0.044632494 -0.108936846 -0.2443654 -0.18825477
0001e0 e4 15 18 be 98 da a8 3d 70 8c 81 3d 70 6b d2 3d
       -0.148521 0.082448184 0.063256145 0.10274398
0001f0 20 42 23 be e4 27 10 be 8c 27 41 be 0c 94 3a 3e
       -0.15943193 -0.14077717 -0.18862742 0.18220538
000200 28 cc 0c be c2 9c 34 3c c9 79 fb 3d fd 5a f8 3d
       -0.13749754 0.011023702 0.12279088 0.1212673
000210 d4 6c 31 3e dc b9 a0 3e a3 56 42 3e 4c cb 58 3e
       0.17326671 0.313918 0.18978362 0.21171302
000220 00 b5 4c 3d 45 8c 52 3e 87 35 87 bc ca 42 87 3e
       0.049977303 0.20561321 -0.016505016 0.26418144
000230 48 20 8c bd ac 90 ab bd 22 c8 bc 3d d9 fe 5b bd
       -0.06842095 -0.08377203 0.0921786 -0.05370984
000240 18 d1 b4 3d 45 77 9b 3d 84 80 00 3e 47 c4 2e 3e
       0.08828944 0.07591108 0.12549025 0.17067061
000250 d4 62 5a be 80 46 48 be fb 96 aa be da c0 1c 3e
       -0.21326762 -0.19558144 -0.33318314 0.15307942
000260 f3 7f 81 3d 23 bc f8 3d 9d ac 92 be 9d 48 7d 3e
       0.063232325 0.12145259 -0.28647318 0.24734731
000270 0f e2 15 be b7 1a 1e 3e 70 30 12 3d a5 c0 05 be
       -0.14637016 0.15439878 0.035690725 -0.1306177
000280 1b 2a c6 be e0 5a e5 bd ed 34 d7 3d 59 18 61 bc
       -0.38704 -0.11198974 0.10508142 -0.013738715
000290 da 4c bb bd a4 6f 19 be 2a 0b 1c be b4 99 57 3e
       -0.09145518 -0.14983994 -0.15238634 0.21054727
0002a0 6e b4 57 3e 06 fb 0b 3d bb 33 aa be f0 7c 50 be
       0.21064922 0.03417494 -0.33242592 -0.2036016
0002b0 c7 69 6c 3b 43 7c 79 3e b8 4c 45 3e df b3 40 3e
       0.003607379 0.24363808 0.19267547 0.18818615
0002c0 c0 50 91 bd 39 03 d8 bd 0b 8d 3c 3e 51 3c 67 bd
       -0.0709548 -0.1054749 0.18413179 -0.056454007
0002d0 92 a1 1e 3e 51 22 4e bc cb 0a 0c 3e d0 9f 4d 3e
       0.15491322 -0.012581424 0.13675992 0.20080495
0002e0 3b 3f 93 3c f6 27 d2 bd 62 35 39 bd b8 ce 8c bd
       0.017974487 -0.10261528 -0.045216925 -0.06875366
0002f0 98 df c0 bd 48 83 fd 3d 2a d5 2e 3e c0 9b 1a bd
       -0.09417647 0.123785555 0.17073503 -0.03774619
000300 78 42 c5 bd e2 28 30 be 6f 02 7d 3d bb 7b f8 3d
       -0.096318185 -0.17203096 0.0617699 0.12132975
000310 e0 42 23 3d e4 fe 3d be d2 a5 9b bd 80 1c ee bb
       0.0398587 -0.18554264 -0.07599987 -0.007266581
000320 47 08 37 3d e9 99 06 be 46 1f 43 3e f3 76 89 be
       0.04468563 -0.1314465 0.19054899 -0.26848564
000330 70 69 d7 3d bb 1a 0e 3e 79 02 81 3e ce 0a 74 be
       0.105181575 0.13877384 0.251972 -0.23832247
000340 c0 3e 4d 3c 61 9f 53 3e 60 9d 97 bd d6 60 4c 3d
       0.012527168 0.20666267 -0.07403064 0.049897037
000350 c9 ef 1a 3e 64 3d 3c 3e 2d 4f 60 3e 42 6e 44 3e
       0.15130533 0.18382794 0.21905203 0.19182685
000360 e6 a5 ec bd 00 b2 97 3d 46 bc c5 3d 8f f5 64 bd
       -0.1155508 0.07406998 0.09655051 -0.055898245
000370 9f 77 0d be db 3c af bd c8 f3 7c 3e ae 12 04 ba
       -0.13815163 -0.08556529 0.2470237 -0.0005038184
000380 08 a0 ac 3d 00 28 ef 39 10 00 24 3e 4b b1 a9 be
       0.08428961 0.00045615435 0.16015649 -0.33143076
000390 50 ab 0c 3e c0 34 81 3d cf 4e b3 bd 98 4a 28 be
       0.13737226 0.063088894 -0.08755266 -0.16434705
0003a0 54 2d 6d be 42 17 56 3e 6c 0d c7 3e 4a d1 fe 3b
       -0.23161823 0.2090731 0.38877428 0.007776414
0003b0 50 08 5e be 76 da 66 bb 59 fe 7d 3e 31 6b 2f 3e
       -0.21682858 -0.0035225428 0.24804057 0.17130734
0003c0 28 e2 02 be 46 e7 dc bd 55 c9 0f 3d ee b7 6c bd
       -0.12781584 -0.107862994 0.035104115 -0.057792597
0003d0 17 62 48 bd 68 65 29 be c1 a5 62 3e 00 b8 8f 3a
       -0.04892167 -0.1654259 0.22133543 0.001096487
0003e0 c0 e6 0e be 00 f3 e6 3d e0 32 bb bc 74 68 16 3e
       -0.13955212 0.11276817 -0.022851408 0.14688283
0003f0 38 ab 72 be d0 1b 49 3e 78 f4 53 be 48 59 67 3e
       -0.23698127 0.19639516 -0.20698726 0.22592652

sequential_1/dense_1_2/Add/ReadVariableOp f4 [32]
000000 00 00 00 00 00 00 00 00 3a 40 8e bc cc 72 8b 3c
       0.0 0.0 -0.01736461 0.017022513
000010 fb ed 7f bc cf c3 c4 bb 6d e3 06 bc 00 00 00 00
       -0.015620704 -0.0060047875 -0.0082329335 0.0
000020 00 00 00 00 91 a1 89 bc dc 45 80 bc 00 00 00 00
       0.0 -0.016800674 -0.015658312 0.0
000030 00 00 00 00 4c 22 76 bc 00 00 00 00 7f 50 1e bc
       0.0 -0.015022825 0.0 -0.009662746
000040 20 20 88 3c 00 00 00 00 00 00 00 00 a0 a8 7c 3c
       0.01661688 0.0 0.0 0.015421063
000050 00 00 00 00 f2 ac 62 3c 4a 13 e0 bb ff bf 43 bc
       0.0 0.013835179 -0.006838237 -0.011947631
000060 6d f6 c6 3c 00 00 00 00 bf ab c4 bb db 36 6c 3c
       0.024287427 0.0 -0.006001919 0.014417375
000070 d8 dd 28 bc 00 00 00 00 34 37 79 bc 96 30 ac 3c
       -0.010306798 0.0 -0.015210915 0.021019261

sequential_1/dense_1/Add/ReadVariableOp f4 [64]
000000 00 00 00 00 68 55 1f bc 8e b9 fa bc e1 b0 81 3c
       0.0 -0.009724952 -0.030606057 0.015831413
000010 00 00 00 00 39 c8 d6 3c 98 77 90 bc 00 00 00 00
       0.0 0.02621852 -0.017635152 0.0
000020 63 05 82 3c f4 61 5d 3b 94 ab 93 bc 10 fd 84 bc
       0.01587171 0.0033780308 -0.01802615 -0.01623395
000030 00 00 00 00 7f f9 ff bc 23 65 7d 3c 17 c4 e5 bc
       0.0 -0.031246899 0.015466007 -0.028047604
000040 00 00 00 00 60 2c 9b 3c 00 00 00 00 0a 2c a5 3c
       0.0 0.018942058 0.0 0.020162601
000050 dd d5 fe 3b 00 00 00 00 8d a1 77 3d 1f 96 6e bc
       0.0077769593 0.0 0.0604568 -0.014562159
000060 ce 75 b2 3c 48 17 86 bd e7 81 ae 3c d1 0f 9f bc
       0.02178469 -0.06547409 0.021302177 -0.019416722
000070 70 90 40 bc 2d b1 af bc 00 00 00 00 41 4e 8e bc
       -0.011753187 -0.021446789 0.0 -0.017371299
000080 06 a0 c5 3d 00 00 00 00 d5 80 dd bb 02 6e 09 bd
       0.09649663 0.0 -0.0067597427 -0.033552177
000090 3f d8 2d bd 00 00 00 00 dc b9 a4 bc 00 00 00 00
       -0.042442556 0.0 -0.020108156 0.0
0000a0 16 5c 83 bc 4e 62 83 3c 49 c9 bc 3d 75 3a 41 bc
       -0.016035121 0.016038086 0.092180796 -0.011793722
0000b0 b3 ab a2 bc 29 71 d7 3b a0 06 8b 3c 59 5a d8 3c
       -0.019857263 0.006574769 0.016970932 0.026410269
0000c0 00 00 00 00 ee 7a 21 bd 79 25 13 3c 64 f7 19 3d
       0.0 -0.039423876 0.008981102 0.037589446
0000d0 80 9f 3f 3c bc 84 80 3c 75 e5 e2 bc 00 00 00 00
       0.011695743 0.015688293 -0.027697304 0.0
0000e0 b1 d4 38 bd 66 a7 75 ba 33 8a 40 bd 00 00 00 00
       -0.045124713 -0.00093709526 -0.047006797 0.0
0000f0 00 00 00 00 00 00 00 00 ee 91 98 bc 00 00 00 00
       0.0 0.0 -0.018624272 0.0

sequential_1/dense_1/MatMul f4 [64, 11]
000000 f2 9f 67 be 70 b1 cb bc 3c f0 48 be e6 1c 4a be
       -0.22619608 -0.024864882 -0.19622892 -0.19737586
000010 50 f7 e5 3c 90 f6 84 bc 3c 84 c3 bd ac 6b ad 3d
       0.02807203 -0.016230851 -0.09546706 0.084678024
000020 ec ef f2 3d 33 f8 28 be d7 a3 00 be 00 da e4 3c
       0.11862168 -0.1650093 -0.125625 0.027935982
000030 3b 12 71 bd f5 aa 04 bb ec 0f a8 3d 0c 9d 90 be
       -0.058855277 -0.00202435 0.08206162 -0.28244817
000040 7b 20 4c 3e 78 33 4e be f8 e0 1a 3e 9e af a2 bd
       0.19934265 -0.20136821 0.15124881 -0.079436526
000050 4c d2 bd 3d d3 34 07 be df 8d 27 3c f5 dc 76 3e
       0.092686266 -0.13203745 0.010226696 0.24107726
000060 8f be da bd 28 2e ab 3e 14 29 9d 3e b0 2c b6 3e
       -0.106808774 0.33433652 0.30695403 0.3558097
000070 fa fc 5b bd ee 3d c0 3d 21 7a 2b 3e ad d6 50 3e
       -0.053708054 0.09386812 0.16745807 0.20394392
000080 4f c0 b5 3e f6 0a 83 3e ac 1f 34 3e d5 cf 67 be
       0.35498282 0.255943 0.17590207 -0.22637875
000090 e8 95 46 be 8b 2d 8c 3d 57 cf 36 3e ea cf a1 be
       -0.19393122 0.06844624 0.17852531 -0.31603938
0000a0 af e2 61 be b5 1c a0 3d 67 53 58 3e 1d aa 0d be
       -0.22059129 0.078179754 0.21125565 -0.13834424
0000b0 6e 89 71 3e 00 63 f9 bc 90 6a ad bc 54 e5 f9 3d
       0.23587582 -0.030442715 -0.021168977 0.12201944
0000c0 60 32 30 bc 16 b2 0b 3e af 37 8f be 9c b6 51 be
       -0.010754198 0.13642153 -0.2797217 -0.20479816
0000d0 62 29 5a be 08 59 47 be 04 fd 8f bd 75 e7 e9 bd
       -0.21304849 -0.19467556 -0.07030681 -0.114211
0000e0 9f c0 1e be 6c 81 8f 3e d4 7c 9b 3e 75 a8 92 3e
       -0.15503167 0.2802843 0.30368674 0.28644148
0000f0 0f 89 de 3e 8b b2 d2 3e cb e5 75 3e d9 f9 5b 3e
       0.43463942 0.41151842 0.2401344 0.21482028
000100 e6 4d d2 3e f0 ea ed 3d 73 49 40 bc af 09 88 3e
       0.41075057 0.116170764 -0.011736262 0.26569888
000110 15 9e ce bc f2 41 84 3e 9b 74 25 3e 9b 5a bf 3e
       -0.025221864 0.25831562 0.16157763 0.37373814
000120 d3 d4 9d 3e 53 f5 fb 3d fd 00 85 bd cb 69 3c 3d
       0.30826434 0.12302651 -0.06494329 0.04599933
000130 93 fb 23 3e 80 a5 63 3c f7 52 8a be 37 f7 6b be
       0.16013937 0.013894439 -0.27016422 -0.23043524
000140 ee e1 26 3e 3e 35 27 be 00 0d e4 ba a9 5f 3c be
       0.16297123 -0.16328904 -0.0017398894 -0.18395866
000150 cc e1 8e be 46 8b eb bd d8 57 40 be 66 fc 34 be
       -0.27906644 -0.11501174 -0.1878351 -0.17674407
000160 00 e4 10 be fe 6d db 3d 9d 4d c4 3c 0d d9 11 3e
       -0.14149475 0.10714339 0.02396279 0.14242955
000170 e3 41 a0 3d bf f0 27 3b a1 08 ad be 47 f8 58 3e
       0.07825067 0.0025625674 -0.33795646 0.2118846
000180 22 e7 91 be 71 4b 4d be 5c 56 a3 be a5 34 7c 3e
       -0.28496653 -0.2004831 -0.31901824 0.24629457
000190 20 e0 9c 3d 1c 70 82 3e f5 5a a8 be f3 c3 1e 3d
       0.07659936 0.25476158 -0.32881895 0.03876109
0001a0 17 a2 cd bd 0e a8 21 be 16 ef 2e 3e 60 37 9f 3c
       -0.10040682 -0.15786764 0.17083392 0.019435585
0001b0 c1 40 72 3e 2a 0e aa bb 9b e5 4d be 3a 78 18 3e
       0.23657514 -0.005189677 -0.20107119 0.14889613
0001c0 0f fe 18 be f4 8a 0c 3e 96 bd d6 3d 7f 01 a2 3d
       -0.14940666 0.13724881 0.104853794 0.079104416
0001d0 95 01 17 be fc 5b 90 be 5a 2e 21 be cd 1d 69 bd
       -0.14746697 -0.28195179 -0.15740338 -0.056913186
0001e0 66 c7 4e 3d 7d 99 16 3e 1d c8 c6 3d c6 07 2d be
       0.05048313 0.14706989 0.09706137 -0.16897497
0001f0 23 1d 34 3e 50 1f 78 3c d6 0e df 3d ec 42 ee 3e
       0.1758924 0.015144184 0.108915016 0.46535432
000200 c9 33 e8 bd 6a b3 8b 3e 50 01 3e 3e 79 99 0b bb
       -0.11338002 0.2728532 0.18555188 -0.0021301194
000210 80 5f 05 be 5a 82 3f be f4 af 71 be 44 5f 6b bd
       -0.13024712 -0.18702069 -0.23602277 -0.0574639
000220 20 30 26 be ce 84 8e bd 28 fd 13 3e a0 fd 0a 3d
       -0.16229296 -0.06958924 0.1445204 0.033933282
000230 2c 84 c3 3d 96 9a 32 be 68 50 2b 3e cf 99 72 bd
       0.09546694 -0.17441782 0.16729891 -0.059228715
000240 fa 07 1c 3e 83 6e 3c be 57 f8 8e 3e 45 2c 44 bd
       0.15237418 -0.18401532 0.27923843 -0.04789378
000250 1b 77 bd 3e a9 c1 df 3c 92 2d 03 be d8 ff 98 3d
       0.37004933 0.027314024 -0.12810352 0.07470673
000260 f2 15 db bd f4 f7 59 3e 1a 04 66 be 4e 25 57 3d
       -0.10697545 0.21285993 -0.22462502 0.05252581
000270 9a 92 1d 3e ee 72 a8 be 83 a9 2f bd 9a 68 40 be
       0.15387955 -0.32900184 -0.04288627 -0.18789902
000280 ea f3 70 3b 40 70 53 bd 7c 2b d3 bc 45 db b9 be
       0.0036766478 -0.05162072 -0.02577757 -0.36300102
000290 33 73 97 be fa 66 ad bc 01 db 0b 3e 5c 83 42 3d
       -0.29580078 -0.021167267 0.13657762 0.047488555
0002a0 64 46 5f 3e fd 86 9e 3e 14 35 c1 bd 15 95 8d 3e
       0.21804196 0.30962363 -0.09433952 0.27652803
0002b0 e8 a5 12 3e cf 35 b4 3e 61 99 b1 3d 28 6e ab 3e
       0.143211 0.35197303 0.08671833 0.3348248
0002c0 d8 a2 dc 3d cc 1c 81 be 2c f4 6f be a2 4a 30 3e
       0.107732475 -0.25217283 -0.23432988 0.1721597
0002d0 d2 85 60 3e e0 eb 5f be fe 5e 79 3e 20 cd 75 bc
       0.21926048 -0.21867323 0.24352643 -0.015002519
0002e0 a0 8c 4c bc 36 8f 26 be 3a 92 3f 3e 47 c7 81 3b
       -0.0124846995 -0.16265568 0.18708125 0.0039605233
0002f0 6a 89 8c 3e a7 87 1c 3e 54 5d 78 be e2 e8 ac bd
       0.2744859 0.15286122 -0.24254352 -0.08442856
000300 07 9e 80 be 14 c7 1f be af 06 3a 3e 1c dc 70 bd
       -0.25120565 -0.15603286 0.18166612 -0.058803663
000310 92 de a1 be 84 88 94 be 54 6b 3a 3e d9 9f 05 be
       -0.3161512 -0.29010403 0.18205005 -0.13049258
000320 60 d3 e6 3c ca 54 ad bd 04 69 27 3e b4 25 d0 3d
       0.028176963 -0.08463438 0.16348654 0.10163441
000330 b0 3d 50 3d 70 85 66 3d 60 ce 6a 3d e1 09 88 3e
       0.05084008 0.0562796 0.05732572 0.26570037
000340 6c d4 b2 3d fc 6a 06 be fe b3 48 3e 46 a0 46 3d
       0.087319225 -0.13126749 0.19599912 0.048492692
000350 d9 a6 70 be 35 d2 1a be f6 66 6c be 46 27 e4 bd
       -0.23501147 -0.1511925 -0.23086151 -0.11140303
000360 d8 a8 8a 3e 93 be 35 be 39 07 2b 3e d9 b5 31 be
       0.27081943 -0.1774848 0.16701974 -0.17354526
000370 8f 25 94 3e 7d de 0b 3e 16 b7 7a 3d a8 9f 96 bd
       0.28934905 0.13659091 0.06120976 -0.07354671
000380 e5 19 09 be f1 7e cd bd 95 f2 f6 bc e1 e9 07 3d
       -0.13388784 -0.10033978 -0.030144969 0.03318203
000390 3b 86 22 3e 33 73 2c be 0c c1 9c bd 4a cf 61 3e
       0.15871517 -0.1684082 -0.07654008 0.22051731
0003a0 f6 56 66 be 16 80 46 3e 18 98 4c 3d 5a e1 72 be
       -0.2249411 0.19384798 0.049949735 -0.23718777
0003b0 32 83 6a 3e 4e 96 17 3e e0 b2 3e bc 19 3b 80 be
       0.2290161 0.1480343 -0.011639327 -0.25045088
0003c0 30 94 fe bc 3a 19 94 bd 67 2b 65 3e 6a fd 89 3d
       -0.03107652 -0.07231374 0.22379838 0.06737788
0003d0 85 73 9c 3c e5 1c 8d be 3c 56 ae be 0d 85 d1 be
       0.019098053 -0.27561107 -0.34050167 -0.40921822
0003e0 b7 b2 09 3d 67 de 09 bd c5 a4 bb 3c cb 0a 9a 3d
       0.0336177 -0.033659365 0.022905717 0.0752159
0003f0 12 5a 7e be 4c c5 dd 3d 5f d7 40 3c db 1c f4 3b
       -0.24839047 0.10828647 0.0117700985 0.007449729
